pytorch/cifar_net.pth (torch_old, 249562 bytes, 10 tensors)

conv1.weight f4 [6, 3, 5, 5]
0.18104988 0.32522896 0.49860612 0.44992018 0.21252574 0.11748685 0.1461967 0.17039032
0.20686668 -0.02566254 0.12595071 0.0626447 -0.041530486 -0.07878061 0.05163586 -0.01646814
-0.30965394 -0.35256863 -0.053962518 -0.096388415 -0.40247673 -0.379051 -0.1910627 -0.22223163
-0.05229584 0.05507391 0.18922886 0.35897195 0.25712284 -0.099140815 0.019939382 -0.028059205
-0.08295992 -0.066175245 0.016689232 0.054675736 0.012769007 -0.13448429 -0.16707262 0.0556363
0.071401805 -0.26607275 -0.24270672 -0.019397013 0.01476947 -0.21559598 -0.2313869 -0.04625894
-0.027495012 0.042640775 -0.041548792 -0.01295604 0.07242764 0.025508933 -0.17234896 0.11699658
0.06994213 0.0045713526 -0.2191014 -0.10250061 0.13358717 0.1034237 -0.067631 -0.21504463
-0.07126349 0.024163917 0.037710626 -0.10071336 0.11646065 0.08268245 0.0094274655 0.027792627
0.103151746 0.13831633 0.24110314 0.26542106 0.043042384 -0.01766373 0.1578884 0.011618206
-0.053710368 -0.13729028 0.09009109 0.23449339 0.101665206 -0.14487806 -0.29016247 0.273676
0.18602405 0.0395189 -0.22306752 -0.15352075 0.28966555 0.22404903 -0.103657395 -0.19680528
0.05273563 0.20507066 0.20377707 -0.042922884 0.056783978 -0.112209275 -0.15115565 -0.042310867
0.06039729 -0.13606872 -0.24541783 -0.124359556 0.14848788 0.03994989 -0.38006124 -0.3870867
0.19347055 0.26810753 -0.07461945 -0.37504205 -0.105632514 0.32866424 0.16257839 -0.1943655
-0.15801455 -0.15087658 0.13364641 0.1593785 -0.09363481 -0.048483804 -0.16575368 -0.14350152
0.08709331 0.21406628 -0.06935932 -0.18252322 -0.031081349 0.21400167 0.1415446 -0.296237
-0.22957909 0.2702594 0.39089853 0.07121837 -0.37826848 -0.21728005 0.42353278 0.3545769
-0.0056309537 -0.11164283 0.035488714 0.32655135 0.34299517 -0.084604755 0.2077599 0.2856484
0.18853188 0.13784172 0.08051854 -0.015172216 -0.0014226707 0.14284387 0.28845602 -0.09061695
0.11184337 -0.42180008 -0.3207929 0.65958303 0.081649005 0.22900583 -0.2846154 -0.80209404
0.0652272 -0.109781444 0.05517192 0.25053567 -0.595933 -0.44067636 -0.14908999 -0.2752579
-0.13436638 -0.12749197 -0.0499788 0.061867695 -0.029074602 -0.2592017 -0.08689479 0.15126182
-0.17828543 0.3016687 -0.34451512 -0.2555899 0.6776987 0.10857589 0.52677685 -0.07383937
-0.699272 0.2927853 0.09442254 0.3603323 0.40162668 -0.21991755 -0.05147986 0.29617235
-0.0031673391 -0.04073488 -0.062050313 0.051197175 -0.11459896 0.024748167 0.109941944 -0.06719706
0.23749743 -0.19839403 0.15403439 -0.3535421 -0.25655255 0.5492632 -0.12586798 0.36797288
-0.038431983 -0.65608585 0.153207 -0.08650375 0.26985046 0.48907226 -0.30141222 -0.17635271
0.049402237 -0.07849634 -0.12453225 -0.11918293 -0.083656974 -0.12270317 -0.07153716 -0.14245394
0.013460291 -0.06892161 -0.07279527 -0.22604969 -0.122135 -0.1685693 -0.14796638 -0.13065326
-0.28378972 -0.1318275 -0.22058554 -0.19196214 -0.18437779 -0.104114346 -0.17768891 -0.2282247
-0.07852455 -0.11074831 -0.095003344 -0.046364073 0.04115694 0.026867345 -0.068839 0.10146403
00000000: 2465 393e 6984 a63e 4d49 ff3e f05b e63e
00000010: 59a0 593e f29c f03d 96b4 153e cd7a 2e3e
00000020: dcd4 533e 3f3a d2bc 39f9 003e dd4b 803d
00000030: df1b 2abd ba57 a1bd 2080 533d 31e8 86bc
00000040: f68a 9ebe e083 b4be cd07 5dbd 4a67 c5bd
00000050: 6e11 cebe f912 c2be f1a5 43be b090 63be
00000060: 2a34 56bd 2e95 613d 36c5 413e 2ccb b73e
00000070: 9ba5 833e 570a cbbd ea57 a33c 6bdc e5bc
00000080: e4e6 a9bd e386 87bd dbb7 883c aaf3 5f3d
00000090: 1935 513c 40b6 09be 1615 2bbe e4e2 633d
000000a0: 1c3b 923d b03a 88be 1c88 78be 7ce6 9ebc
000000b0: a6fb 713c 31c5 5cbe b0f0 6cbe 047a 3dbd
000000c0: 383d e1bc 18a8 2e3d 112f 2abd 9245 54bc
000000d0: f154 943d 1cf8 d03c 3f7c 30be e79b ef3d
000000e0: d23d 8f3d 49cb 953b 1e5c 60be d7eb d1bd
000000f0: 13cb 083e cecf d33d 1f82 8abd a934 5cbe
00000100: 98f2 91bd 68f3 c53c 7576 1a3d ce42 cebd
00000110: ec82 ee3d 6b55 a93d a875 1a3c 5dad e33c
00000120: 3941 d33d cca2 0d3e bee3 763e 45e5 873e
00000130: 364d 303d 87b3 90bc 7fad 213e 4a5a 3e3c
00000140: 67ff 5bbd d395 0cbe ad81 b83d 091f 703e
00000150: d935 d03d ea5a 14be 2d90 94be 431f 8c3e
00000160: 177d 3e3e 92de 213d d06b 64be 8b34 1dbe
00000170: 0b4f 943e 1c6d 653e 544a d4bd 5387 49be
00000180: 5101 583d 0bfe 513e f0aa 503e e8cf 2fbd
00000190: 5196 683d facd e5bd 8cc8 1abe 294e 2dbd
000001a0: 2663 773d 9955 0bbe d04e 7bbe 39b0 febd
000001b0: 350d 183e 7fa2 233d 6397 c2be 3a30 c6be
000001c0: 251d 463e 6445 893e 15d2 98bd 8305 c0be
000001d0: dc55 d8bd ae46 a83e f37a 263e c007 47be
000001e0: 91ce 21be 647f 1abe 9bda 083e 1e34 233e
000001f0: 9bc3 bfbd f496 46bd 55bb 29be 10f2 12be
00000200: fa5d b23d 3134 5b3e 420c 8ebd 5ee7 3abe
00000210: 509e febc 4123 5b3e 11f1 103e 60ac 97be
00000220: c816 6bbe 715f 8a3e da23 c83e f0da 913d
00000230: 68ac c1be a97e 5ebe 4ad9 d83e 1a8b b53e
00000240: dd83 b8bb ffa4 e4bd 9d5c 113d bd31 a73e
00000250: 109d af3e 4245 adbd 03bf 543e 8240 923e
00000260: 800e 413e 6126 0d3e e8e6 a43d e394 78bc
00000270: e878 baba aa45 123e 82b0 933e 6195 b9bd
00000280: 230e e53d 2ef6 d7be f83e a4be 6fda 283f
00000290: 9837 a73d 8180 6a3e 1cb9 91be 0956 4dbf
000002a0: d795 853d 18d5 e0bd f4fb 613d 3646 803e
000002b0: 118f 18bf 55a0 e1be 0cab 18be 9aee 8cbe
000002c0: 5797 09be 418d 02be 92b6 4cbd fb68 7d3d
000002d0: dc2d eebc 16b6 84be e5f5 b1bd 61e4 1a3e
000002e0: 7590 36be 5274 9a3e 4964 b0be aedc 82be
000002f0: a97d 2d3f 095d de3d d9da 063f 1839 97bd
00000300: 7d03 33bf f4e7 953e 9b60 c13d 7a7d b83e
00000310: 03a2 cd3e 1132 61be 8cdc 52bd e7a3 973e
00000320: 2293 4fbb 9ed9 26bd 7828 7ebd 21b4 513d
00000330: dcb2 eabd abbc ca3c 3e29 e13d 9d9e 89bd
00000340: 8732 733e ce27 4bbe 31bb 1d3e 7803 b5be
00000350: db5a 83be 839c 0c3f 89e3 00be f166 bc3e
00000360: db6a 1dbd 3ef5 27bf 4ce2 1c3e e128 b1bd
00000370: d729 8a3e ae67 fa3e b452 9abe ce95 34be
00000380: 005a 4a3d b0c2 a0bd c40a ffbd 2e16 f4bd
00000390: 5954 abbd cd4b fbbd 1382 92bd 72df 11be
000003a0: 8d88 5c3c c626 8dbd b015 95bd 9279 67be
000003b0: ea21 fabd 6e9d 2cbe 8084 17be f8c9 05be
000003c0: e34c 91be cafd 06be 2de1 61be b991 44be
000003d0: 88cd 3cbe e739 d5bd 15f4 35be bcb3 69be
000003e0: 7bd1 a0bd 03d0 e2bd 1d91 c2bd 41e8 3dbd
000003f0: 2e94 283d e818 dc3c 76fb 8cbd 60cc cf3d

conv1.bias f4 [6]
-0.36467507 -0.17596065 -0.008650382 0.27474576 -0.3331798 -0.28532258
00000000: b1b6 babe 072f 34be 55ba 0dbc 7aab 8c3e
00000010: 8b96 aabe cd15 92be

conv2.weight f4 [16, 6, 5, 5]
-0.2046051 -0.2003061 -0.15882257 -0.14287704 -0.05538568 -0.2255616 -0.15277344 -0.17841233
-0.18331394 0.116704695 -0.26101843 -0.2536902 -0.120682925 0.16353774 0.14326553 -0.24887002
-0.09084723 0.2199591 0.23928787 -0.06400475 -0.1842289 0.12745921 0.08258152 -0.19323842
-0.04527429 -0.07078134 -0.032491557 -0.10124738 0.12200397 0.07563874 -0.070315935 -0.09394097
0.026415167 0.08155344 0.046553593 -0.20104201 -0.20173083 -0.06961312 -0.00628888 0.057172563
-0.06912676 -0.2604759 -0.17939146 -0.005328565 0.044823114 -0.17752425 -0.22148071 0.030644668
0.15575448 -0.14101884 -0.0069730785 -0.027251218 0.30678207 0.26345557 0.23043092 -0.12557559
-0.0607813 -0.043150898 0.25201574 0.19298346 -0.042844173 -0.08533248 -0.0022901434 0.18529564
0.08274618 -0.001928119 0.11287213 0.018171728 0.020310704 0.030038182 -0.07564673 -0.08967918
-0.094836324 -0.019649956 0.061657738 -0.11820663 -0.098309025 -0.1444997 -0.13773935 -0.046495203
-0.07036423 -0.00038974517 -0.07460269 -0.13529493 -0.15058959 0.0072113588 0.05656701 -0.09274825
-0.1351431 -0.121828556 0.01021749 -0.08108819 -0.006240386 -0.0712772 -0.05196786 -0.1173478
0.018608902 -0.13989681 -0.12894237 -0.07805506 -0.11277527 -0.15961438 -0.081743605 0.11275529
-0.031741593 -0.21503033 -0.30915248 -0.16423002 -0.026681526 0.07484487 -0.16357473 -0.1774739
-0.232063 -0.07810405 0.19264957 -0.25221166 -0.23303601 -0.057837963 0.057900354 0.018854478
-0.3014649 -0.06156157 0.08969901 -0.104379795 -0.2495625 0.014697404 -0.08274914 -0.08078327
-0.021806782 0.004233287 -0.13321014 -0.08372831 -0.090216994 -0.037716616 -0.13016152 -0.077193774
-0.07972459 -0.06936389 -0.04811805 -0.033206772 -0.0023604594 0.0064181346 0.056373082 0.11822915
-0.008075931 0.16232286 0.12076996 0.06827435 0.084839985 -0.021649115 0.11423421 0.04284394
-0.056848392 0.01718641 -0.075443156 0.09633471 0.064543135 0.0068596257 0.07250786 0.055985905
0.026199501 -0.04128994 0.04079229 -0.08295836 -0.15576708 -0.043739498 -0.10604926 -0.21559311
-0.2610595 -0.24728133 -0.045904785 -0.09611198 -0.1853836 -0.20214127 -0.22551528 -0.11204897
-0.18015245 0.04491883 -0.12741764 0.10991762 -0.10405266 0.010231579 0.12948912 -0.13829535
0.112208694 0.002957579 0.04697378 0.17651646 -0.082924075 0.17349681 -0.04931666 0.051001884
0.17182133 -0.15718366 0.14279859 0.02716283 -0.085537836 0.15478308 -0.16590951 0.15147759
-0.21734779 -0.0061557824 -0.18336831 0.061825458 -0.043465495 -0.17597647 0.103976145 -0.046961628
0.09952742 0.031427693 -0.11415183 0.118450485 0.02007084 0.22796191 0.014233274 -0.18420474
0.23043978 -0.050698027 0.13894708 0.044781156 0.05954706 0.21588658 -0.08692474 0.23064534
0.0030412874 0.022530662 -0.042824738 -0.005314883 0.021326145 -0.024693105 0.046170138 0.01122662
0.026458213 0.011963712 -0.028427452 0.14534824 -0.042044196 -0.0011217529 -0.083709255 -0.072295584
0.07381813 -0.06544042 0.01864283 -0.11752453 -0.041474175 -0.0094637135 -0.06692334 -0.14005725
-0.12597722 -0.20100427 -0.058067765 0.030500935 -0.009161767 -0.056161996 -0.07296279 -0.04068833
00000000: 0084 51be 0b1d 4dbe 62a2 22be 5c4e 12be
00000010: 18dc 62bd 9ff9 66be a470 1cbe b9b1 36be
00000020: a6b6 3bbe df02 ef3d 35a4 85be afe3 81be
00000030: 9c28 f7bd 7076 273e 33b4 123e c8d7 7ebe
00000040: 1d0e babd f53c 613e e107 753e ec14 83bd
00000050: 80a6 3cbe ab84 023e 8020 a93d 4be0 45be
00000060: 8971 39bd cff5 90bd de15 05bd c95a cfbd
00000070: 38dd f93d 7ce8 9a3d cd01 90bd 2064 c0bd
00000080: 9f64 d83c 7d05 a73d fbae 3e3d f5dd 4dbe
00000090: 8792 4ebe 5391 8ebd f312 cebb c72d 6a3d
000000a0: 5592 8dbd 195d 85be 65b2 37be 3e9b aebb
000000b0: 7198 373d ebc8 35be d7cb 62be 870a fb3c
000000c0: 1a7e 1f3e 3e67 10be 6c7e e4bb f23d dfbc
000000d0: 8a12 9d3e a6e3 863e 15f6 6b3e e396 00be
000000e0: d0f5 78bd ffbe 30bd 3508 813e 759d 453e
000000f0: 5f7d 2fbd ccc2 aebd 3b16 16bb 24be 3d3e
00000100: d476 a93d f0b8 fcba 8129 e73d e0dc 943c
00000110: a262 a63c a212 f63c acec 9abd b8a9 b7bd
00000120: 8c39 c2bd f2f8 a0bc d38c 7c3d 5116 f2bd
00000130: 3e56 c9bd bbf7 13be 8b0b 0dbe c171 3ebd
00000140: 1f1b 90bd b656 ccb9 4cc9 98bd c18a 0abe
00000150: 2834 1abe 434d ec3b cfb2 673d cbf2 bdbd
00000160: f462 0abe 4081 f9bd 4267 273c 9111 a6bd
00000170: 277c ccbb c8f9 91bd 40dc 54bd 0b54 f0bd
00000180: b271 983c 1c41 0fbe 7809 04be 55db 9fbd
00000190: b9f6 e6bd f471 23be 3169 a7bd 3fec e63d
000001a0: 7903 02bd e930 5cbe 3c49 9ebe ea2b 28be
000001b0: 3793 dabc 4448 993d 2280 27be b8bb 35be
000001c0: eca1 6dbe 04f5 9fbd ee45 453e e321 81be
000001d0: fea0 6ebe 80e7 6cbd ec28 6d3d b574 9a3c
000001e0: 9b59 9abe fc27 7cbd 1db4 b73d 13c5 d5bd
000001f0: 508d 7fbe 61cd 703c 6278 a9bd b371 a5bd
00000200: 23a4 b2bc 63b7 8a3b 3d68 08be c079 abbd
00000210: b0c3 b8bd bd7c 1abd 1049 05be c517 9ebd
00000220: a546 a3bd a80e 8ebd 6f17 45bd d303 08bd
00000230: f0b1 1abb 374f d23b 76e7 663d 2022 f23d
00000240: e950 04bc f737 263e 3e56 f73d 6cd3 8b3d
00000250: 96c0 ad3d 7c59 b1bc a0f3 e93d 217d 2f3d
00000260: dcd9 68bd 84ca 8c3c f181 9abd 224b c53d
00000270: 312f 843d b6c6 e03b 007f 943d 7a51 653d
00000280: 56a0 d63c a41f 29bd d115 273d 13e6 a9bd
00000290: 6881 1fbe 3028 33bd 5b30 d9bd 71c4 5cbe
000002a0: 97a9 85be 5137 7dbe a806 3cbd 5cd6 c4bd
000002b0: 33d5 3dbe 1ffe 4ebe 7aed 66be ee79 e5bd
000002c0: e279 38be cffc 373d c579 02be 7d1c e13d
000002d0: 9019 d5bd 5aa2 273c cc98 043e 4c9d 0dbe
000002e0: accd e53d f1d3 413b 9467 403d bbc0 343e
000002f0: 19d4 a9bd 26a9 313e 4400 4abd 5ae7 503d
00000300: eef1 2f3e c1f4 20be cb39 123e 9584 de3c
00000310: 762e afbd 757f 1e3e 2fe4 29be f11c 1b3e
00000320: 6b90 5ebe 72b6 c9bb e7c4 3bbe b13c 7d3d
00000330: e008 32bd 2d33 34be 72f1 d43d d65a 40bd
00000340: 08d5 cb3d 53ba 003d 6fc8 e9bd 2b96 f23d
00000350: 9a6b a43c d96e 693e ae32 693c 2ba0 3cbe
00000360: 68f8 6b3e bca8 4fbd 2548 0e3e 726c 373d
00000370: 9ee7 733d 5f11 5d3e 9905 b2bd 4b2e 6c3e
00000380: 5650 473b 3992 b83c fe68 2fbd 7828 aebb
00000390: 2bb4 ae3c 3249 cabc e61c 3d3d dbef 373c
000003a0: e5be d83c 7203 443c b0e0 e8bc 2bd6 143e
000003b0: 8936 2cbd c807 93ba c26f abbd b50f 94bd
000003c0: f62d 973d a005 86bd d9b8 983c b3b0 f0bd
000003d0: d3e0 29bd b10d 1bbc 1b0f 89bd 2b6b 0fbe
000003e0: 2c00 01be 10d4 4dbe 77d8 6dbd 19dd f93c
000003f0: 3c1b 16bc 1f0a 66bd 846d 95bd cea8 26bd

conv2.bias f4 [16]
0.88192046 -0.08490326 0.0947556 0.478491 -0.076806106 0.19007099 -0.21772513 -0.12052708
-0.10793124 -0.06468965 0.5186882 -0.08751442 0.50510246 -0.5567637 -0.821676 -0.04515726
00000000: 8ac5 613f c3e1 adbd 390f c23d c6fc f43e
00000010: 854c 9dbd f8a1 423e 56f3 5ebe e7d6 f6bd
00000020: 0e0b ddbd 027c 84bd c0c8 043f c33a b3bd
00000030: 654e 013f 1188 0ebf 5c59 52bf d2f6 38bd

fc1.weight f4 [120, 400]
-0.04964347 -0.013497174 -0.030948685 -0.02415683 -0.07702125 -0.06056599 0.025483113 -0.02896619
0.025176235 0.095334694 -0.029291958 0.03049746 0.013342939 0.044277575 0.008344201 -0.051613413
0.038383827 0.014330652 0.04693332 0.055162087 -0.08603372 -0.008692043 -0.017858 -0.07105806
-0.088139914 0.042318687 0.036102213 0.01177298 0.010215687 -0.016929919 0.009446523 0.08341883
0.0652712 0.06269369 0.030986037 0.039228316 0.06924272 0.023535749 0.024297379 0.01796544
0.009399211 -0.019082706 -0.035713684 0.04093108 -0.004635292 -0.056397535 0.02496469 0.008466563
-0.057632513 -0.049393315 0.024138976 -0.021260932 0.040674552 -0.0047179637 0.028938483 -0.01958852
-0.025388695 0.054002084 -0.005782832 0.021464253 0.030418016 -0.0003672991 -0.007280575 -0.03485228
0.058609564 0.042363193 0.045394834 -0.008441841 -0.011178376 0.026715484 0.051980425 -0.02507652
-0.028506642 0.01622929 -0.025970604 0.041302636 0.023994667 0.052699465 0.09406441 0.13354711
-0.029925631 0.0029790737 0.022470292 -0.028335145 -0.016528297 0.024250846 0.034387976 -0.009324874
0.026943324 0.015864605 0.0500395 -0.035836056 -0.058729287 -0.043498605 -0.014760582 0.015001517
-0.070353515 -0.038628902 -0.03220433 -0.048498716 0.014614787 -0.014069001 0.024600826 -0.005803717
0.004810073 0.026521752 0.011238565 -0.0659919 0.03305441 -0.03853142 -0.028409045 0.008152016
0.0066181226 0.030737871 -0.004891261 0.02575151 0.049522016 -0.023063894 -0.030565646 -0.035128508
0.10654514 0.12174678 0.015004737 -0.01521608 0.0640803 -0.025624115 -0.020535478 0.006566135
-0.0065993275 0.006281341 0.020108538 0.024718096 0.024108289 0.088914216 0.009847186 -0.002283501
0.04166273 0.092331365 0.035873756 -0.045916155 -0.036628913 0.0107298 0.04306181 0.048327096
0.026969524 -0.0349671 0.06408998 0.03557407 0.009736564 0.006876821 0.03902728 0.056202155
0.13677005 0.11900212 -0.04144851 0.05699501 -0.0356778 -0.027151683 -3.1630003e-05 0.020283502
0.030438766 0.009422967 -0.00020990557 0.041646384 -0.015615896 -0.07889921 -0.046861805 -0.03559806
-0.11542914 -0.114423625 -0.0030560114 0.030058816 -0.050466333 -0.08535178 -0.10347033 0.043955307
-0.016927803 -0.03445977 0.049272377 -0.0053120274 -0.05589084 -0.0005927429 -0.020863967 -0.080174394
0.024665045 -0.0681656 -0.06305519 -0.0072050258 0.0049416367 -0.01377199 -0.0878667 -0.11001419
-0.0829745 -0.05935668 -0.049952127 0.011811979 -0.043157324 -0.018208772 -0.063125476 0.020984715
-0.031873394 -0.019168647 0.017324202 -0.005045986 0.0310757 -0.04921034 -0.056579467 -0.09970871
-0.082943395 -0.034708712 -0.047228526 -0.05214285 -0.039817512 -0.09391309 -0.07945524 -0.092202105
-0.07376026 -0.07848553 -0.056978945 -0.04554771 -0.07615887 -0.09785672 -0.0037441847 0.01616624
-0.07886173 0.037148964 0.031306677 -0.050425284 0.06376334 -0.019088667 0.047820505 -0.033613775
-0.01039724 0.00060314516 0.062240012 0.0261998 -0.04522992 0.02626012 0.054491125 0.07497094
0.019252775 -0.03711721 -0.001110743 0.028293602 0.031143058 -0.014737253 -0.03603434 -0.021674095
-0.007918622 0.024028098 0.0046555162 0.04035655 0.061099682 0.021378236 -0.009328872 0.07469452
00000000: f456 4bbd 4023 5dbc 1988 fdbc 8be4 c5bc
00000010: 51bd 9dbd 0b14 78bd f6c1 d03c 814a edbc
00000020: 643e ce3c d63e c33d b0f5 efbc cfd5 f93c
00000030: 589c 5a3c 675c 353d 1eb6 083c 9668 53bd
00000040: 5c38 1d3d 1ccb 6a3c 273d 403d a4f1 613d
00000050: 7232 b0bd 1269 0ebc f14a 92bc e386 91bd
00000060: b382 b4bd 5c56 2d3d eadf 133d 75e3 403c
00000070: b25f 273c 9db0 8abc 97c5 1a3c 7ed7 aa3d
00000080: e8ac 853d 8d65 803d 6ed6 fd3c dfad 203d
00000090: 21cf 8d3d 0bce c03c 4c0b c73c 422c 933c
000000a0: 26ff 193c 5653 9cbc 8348 12bd 59a7 273d
000000b0: a6e3 97bb 1a01 67bd c082 cc3c 57b7 0a3c
000000c0: 1210 6cbd a550 4abd 1abf c53c 682b aebc
000000d0: 5c9a 263d 2699 9abb 6610 ed3c 1b78 a0bc
000000e0: f4fb cfbc 4a31 5d3d e97d bdbb cdd5 af3c
000000f0: 342f f93c 0d92 c0b9 e491 eebb 44c1 0ebd
00000100: 9510 703d 0785 2d3d efef 393d a64f 0abc
00000110: 8225 37bc 6eda da3c 6de9 543d 466d cdbc
00000120: c386 e9bc 4af3 843c 4ec0 d4bc f42c 293d
00000130: 7790 c43c 65db 573d d7a4 c03d 93c0 083e
00000140: 9926 f5bc 903c 433b 9e13 b83c 1b1f e8bc
00000150: 5a66 87bc b6a9 c63c 68da 0c3d 5bc7 18bc
00000160: 3fb8 dc3c 7df6 813c 38f6 4c3d d4c8 12bd
00000170: 1f8e 70bd 982b 32bd 5ed6 71bc ecc8 753c
00000180: 8115 90bd 5739 1ebd b0e8 03bd 97a6 46bd
00000190: dc72 6f3c ab81 66bc ac87 c93c 1b2d bebb
000001a0: d19d 9d3b 2544 d93c f521 383c c326 87bd
000001b0: 1064 073d 1fd3 1dbd 16ba e8bc 0990 053c
000001c0: d6dc d83b fdcd fb3c df46 a0bb d5f4 d23c
000001d0: 99d7 4a3d 7ef0 bcbc ce64 fabc e9e2 0fbd
000001e0: 5734 da3d 6056 f93d 6ed6 753c dd4c 79bc
000001f0: 883c 833d aae9 d1bc 053a a8bc bc28 d73b
00000200: 2c3f d8bb b5d3 cd3b a9ba a43c 9b7d ca3c
00000210: bf7e c53c a818 b63d 1756 213c caa6 15bb
00000220: 8aa6 2a3d 3a18 bd3d 5cf0 123d 9412 3cbd
00000230: 3308 16bd 0bcc 2f3c 9561 303d a2f2 453d
00000240: 31ef dc3c a939 0fbd 9c41 833d 1eb6 113d
00000250: 1c86 1f3c f556 e13b 12db 1f3d 3b34 663d
00000260: 730d 0c3e 62b7 f33d eac5 29bd 9973 693d
00000270: e322 12bd 356d debc 75aa 04b8 9629 a63c
00000280: b85a f93c ca62 1a3c 191a 5cb9 6695 2a3d
00000290: d1d9 7fbc e995 a1bd 2af2 3fbd 45cf 11bd
000002a0: 1d66 ecbd ef56 eabd 5d47 48bb e83d f63c
000002b0: c9b5 4ebd eacc aebd 41e8 d3bd 7b0a 343d
000002c0: 2dac 8abc b025 0dbd d5d1 493d 8410 aebb
000002d0: cbed 64bd 4d62 1bba e9ea aabc 7932 a4bd
000002e0: 590e ca3c 689a 8bbd 1423 81bd 2318 ecbb
000002f0: 74ed a13b eaa3 61bc 75f3 b3bd 1f4f e1bd
00000300: 89ee a9bd fd1f 73bd 9a9a 4cbd 0887 413c
00000310: bcc5 30bd 902a 95bc ee47 81bd 23e8 ab3c
00000320: ad8d 02bd 9107 9dbc 7ceb 8d3c cc58 a5bb
00000330: 7792 fe3c c890 49bd dfbf 67bd 1534 ccbd
00000340: 3ade a9bd b92a 0ebd b372 41bd be93 55bd
00000350: b017 23bd 8255 c0bd 6eb9 a2bd 75d4 bcbd
00000360: 9f0f 97bd 06bd a0bd c162 69bd 3c90 3abd
00000370: 2ef9 9bbd 1b69 c8bd ff60 75bb 106f 843c
00000380: 4282 a1bd 8329 183d 6e3b 003d be8a 4ebd
00000390: 5b96 823d d65f 9cbc 6fdf 433d 99ae 09bd
000003a0: 2f59 2abc 631c 1e3a 62ef 7e3d f7a0 d63c
000003b0: 0243 39bd 771f d73c 1632 5f3d 5d8a 993d
000003c0: ffb7 9d3c 3708 18bd 5a96 91ba fcc7 e73c
000003d0: ba1f ff3c 8574 71bc be98 13bd df8d b1bc
000003e0: 1cbd 01bc 93d6 c43c 4d8d 983b e94c 253d
000003f0: a943 7a3d 6921 af3c 20d8 18bc 71f9 983d

fc1.bias f4 [120]
0.07051875 -0.024716787 -0.070904 0.007644831 0.075526446 -0.0023280883 -0.013756187 0.089344665
-0.023274222 0.05894436 -0.025109947 0.03905678 0.12056485 -0.1278971 0.09274947 0.014443153
0.17111023 0.1148215 0.16344514 -0.024351701 0.07976283 0.050248004 -0.00653405 0.060020197
-0.0055982345 -0.054643106 -0.07945786 0.03777493 0.15957057 0.12085976 0.018653126 0.040197127
-0.04959925 -0.047392305 -0.018723866 -0.074280486 0.0010203329 -0.0066529117 0.02621221 0.18068375
0.12427463 0.018507976 0.029771237 -0.045388673 0.006698578 -0.04636846 0.05897008 -0.032339215
0.07735213 -0.12146501 -0.0088382615 0.16656844 0.029801188 0.006652303 0.06794234 0.23035769
0.027918588 0.15154973 0.0052404865 0.101108626 -0.051418852 0.041764315 0.0011861455 0.12345553
0.13827264 -0.02083912 0.062974356 0.10064012 -0.030490026 -0.06320921 0.18070844 0.003934785
0.002976877 0.03386989 0.14318538 -0.03192899 0.27072287 -0.056353103 0.009880561 -0.0039131315
-0.08366291 0.063684575 0.023562333 -0.014524974 0.020341711 0.043859385 0.02447501 0.021967312
-0.13767731 -0.06803657 -0.052363794 -0.080210865 -0.043292213 -0.0058000768 0.08904746 0.0027344772
0.14145133 -0.014054773 0.112938985 -0.03062158 0.1280569 0.081560604 0.061201263 0.04414575
-0.023835365 -0.017650116 0.01239322 0.025991172 0.13373987 -0.041416097 0.03674043 -0.02352499
0.11403443 0.054699454 -0.14622736 -0.012917153 -0.008318907 0.07843391 0.07769205 0.01721713
00000000: 226c 903d dc7a cabc 1e36 91bd 7e81 fa3b
00000010: 9cad 9a3d d792 18bb a161 61bc 56fa b63d
00000020: 95a9 bebc a46f 713d 60b3 cdbc 01fa 1f3d
00000030: b4ea f63d 75f7 02be 6ff3 bd3d f9a2 6c3c
00000040: 8537 2f3e 8927 eb3d 2a5e 273e 387d c7bc
00000050: b25a a33d dad0 4d3d 961b d6bb bdd7 753d
00000060: 6571 b7bb 73d1 5fbd cdba a2bd e3b9 1a3d
00000070: 7866 233e 5285 f73d 71ce 983c bea5 243d
00000080: 9528 4bbd 6f1e 42bd cb62 99bc 5e20 98bd
00000090: b1bc 853a ab00 dabb fdba d63c 2905 393e
000000a0: b283 fe3d 0a9e 973c cfe2 f33c 79e9 39bd
000000b0: bf7f db3b dbec 3dbd 9c8a 713d 2076 04bd
000000c0: cb6a 9e3d a6c2 f8bd 5bce 10bc eb90 2a3e
000000d0: 9f21 f43c 90fb d93b 5b25 8b3d e3e2 6b3e
000000e0: 86b5 e43c da2f 1b3e 63b8 ab3b 0a12 cf3d
000000f0: 939c 52bd 0f11 2b3d 7078 9b3a 41d6 fc3d
00000100: 5897 0d3e cdb6 aabc b3f8 803d 681c ce3d
00000110: 38c6 f9bc d573 81bd a20b 393e 5eef 803b
00000120: b517 433b 27bb 0a3d 309f 123e f9c7 02bd
00000130: 309c 8a3e 83d2 66bd 14e2 213c ba39 80bb
00000140: 7657 abbd 0f6d 823d cb05 c13c 28fa 6dbc
00000150: a9a3 a63c e6a5 333d d17f c83c cbf4 b33c
00000160: 48fb 0cbe c256 8bbd 6b7b 56bd 9845 a4bd
00000170: 2d53 31bd 920e bebb 845e b63d ea34 333b
00000180: 9ed8 103e fe45 66bc 8e4c e73d 1cda fabc
00000190: 5921 033e 3f09 a73d 2dae 7a3d 2dd2 343d
000001a0: 6242 c3bc fa96 90bc ef0c 4b3c 70eb d43c
000001b0: 1bf3 083e eda3 29bd 227d 163d 7bb7 c0bc
000001c0: e28a e93d 890c 603d a0bc 15be 77a2 53bc
000001d0: 064c 08bc f5a1 a03d 021d 9f3d f00a 8d3c

fc2.weight f4 [84, 120]
-0.0019594461 -0.059645593 0.027639538 0.043478873 0.0644136 -0.06292957 -0.037959892 0.0047006137
0.06850367 -0.09625826 0.051110007 0.010761479 -0.0928988 -0.07240915 -0.040214397 0.028137915
-0.03735243 0.04222744 -0.025880402 -0.06018629 -0.052794974 -0.08743294 -0.06657534 0.05260889
0.048429947 0.08274122 -0.08819224 -0.04948736 0.07311678 0.04150046 0.053882953 0.05404189
0.06706819 -0.069125384 0.06764405 -0.061276138 -0.05279116 -0.08388182 -0.016939618 -0.09811491
-0.09945003 0.025407538 0.007572463 -0.035138715 -0.019002205 -0.08025866 -0.0904952 -0.020653417
-0.06268909 -0.04814541 -0.008755103 0.046628967 0.08517546 -0.043952744 -0.05801564 -0.07800996
0.050399743 -0.03947427 0.03298264 0.051195547 0.040302005 0.014966267 0.011057857 0.019715061
0.011753637 -0.044556435 0.072733246 0.072443746 0.027259383 -0.020474276 0.064491905 -0.008423565
0.041430607 0.08346776 0.055326533 -0.08569055 0.041442484 0.02918952 -0.062386885 -0.035031162
0.014115568 0.033753414 0.058052834 -0.007394833 0.05874745 -0.09717371 -0.0061532087 -0.062036056
-0.04518002 -0.05683295 0.041171502 -0.06385324 -0.015167032 0.052317325 0.048286445 -0.012043272
0.02513556 -0.04924902 0.001000678 0.08399788 -0.03779326 0.052846555 0.029411087 -0.030443246
0.038312413 0.08080683 0.08446123 0.058947705 0.013298849 -0.08788905 0.032673713 0.033873085
0.031731684 -0.04735111 0.025456937 0.046807263 0.08788588 0.06492872 -0.09626741 0.061909303
0.042412378 -0.10771456 -0.10875591 -0.097928464 0.07632217 -0.06431319 -0.06657319 -0.05505574
0.07716907 0.04829227 0.06054618 0.016826883 0.059587017 0.020825913 0.08082289 -0.08407054
-0.05841265 -0.094332606 -0.04591197 0.05743785 0.06531501 -0.026349884 0.052587517 0.047598988
-0.025075566 0.043290116 -0.014015733 0.069661066 0.063682154 0.041356232 -0.02032506 0.046500515
-0.06806583 -0.086003296 0.06957789 -0.044621434 0.029501686 -0.0012072885 0.01079276 0.013879867
0.09180995 0.08781828 0.03157395 0.027161257 0.013413445 0.08649595 0.0029739228 0.076441996
0.0757188 -0.014676621 0.10248289 -0.009094518 0.07761241 -0.006005173 0.08345346 0.019288307
-0.056191232 0.0939497 0.03971205 -0.05867218 0.043839265 0.044990532 -0.07510862 -0.08459732
0.12021086 0.03740806 0.009815799 -0.12305252 -0.082697995 0.0007724713 -0.08527477 -0.06856743
0.030126773 -0.088737115 0.04922352 -0.045328677 0.07532761 -0.11838175 0.08250629 -0.07969759
0.06922283 0.049343236 0.019817129 0.0137929255 -0.08939824 -0.03962126 -0.0997687 0.028357679
-0.07759156 0.027071971 0.016555043 0.0072392537 0.036616098 -0.010628291 0.07901806 -0.09072743
0.03411957 -0.063849136 0.060293663 -0.05036347 0.050610367 -0.029930346 -0.104201645 -0.032993462
-0.01889544 -0.012507312 -0.009759326 -0.05742061 0.12171822 -0.098873846 0.009223083 0.021537064
-0.08764277 -0.051279392 0.06912053 0.039892007 -0.07728547 0.010520024 0.0841783 0.08602837
0.14135072 -0.117325425 -0.024334325 0.009720714 -0.024978997 -0.09788121 -0.072908476 -0.042933524
-0.04485965 0.07232242 -0.08337613 0.18293768 -0.09185717 -0.09103011 0.071998574 -0.052899342
00000000: 0d6a 00bb f04e 74bd 506c e23c e716 323d
00000010: 47eb 833d 38e1 80bd d57b 1bbd 9b07 9a3b
00000020: a74b 8c3d 0d23 c5bd ba58 513d ea50 303c
00000030: ba41 bebd 404b 94bd dab7 24bd 7c81 e63c
00000040: ddfe 18bd aef6 2c3d 2303 d4bc e685 76bd
00000050: 8b3f 58bd 0b10 b3bd a758 88bd 6b7c 573d
00000060: 7b5e 463d 3b74 a93d 229e b4bd 42b3 4abd
00000070: 40be 953d 63fc 293d 5fb4 5c3d 075b 5d3d
00000080: 0c5b 893d 9c91 8dbd f788 8a3d b0fc 7abd
00000090: 8b3b 58bd 3bca abbd f4c4 8abc 78f0 c8bd
000000a0: 75ac cbbd 7823 d03c 6c22 f83b 9ded 0fbd
000000b0: 83aa 9bbc a75e a4bd 8c55 b9bd 5b31 a9bc
000000c0: 2363 80bd 1f34 45bd 9071 0fbc 04fe 3e3d
000000d0: 7970 ae3d cb07 34bd cfa1 6dbd b0c3 9fbd
000000e0: f66f 4e3d c6af 21bd ce18 073d 6cb2 513d
000000f0: b713 253d 1335 753c 042c 353c 7b81 a13c
00000100: 5492 403c cf80 36bd 2bf5 943d 635d 943d
00000110: 124f df3c abb9 a7bc 5514 843d fe02 0abc
00000120: 24b3 293d 25f1 aa3d 139e 623d 877e afbd
00000130: 98bf 293d dc1e ef3c 6489 7fbd d67c 0fbd
00000140: fc44 673c 0541 0a3d cfc8 6d3d 5b50 f2bb
00000150: 2ba1 703d 0303 c7bd dba0 c9bb 8519 7ebd
00000160: af0e 39bd abc9 68bd 73a3 283d 7dc5 82bd
00000170: 257f 78bc b14a 563d 02c8 453d 2551 45bc
00000180: 17e9 cd3c 57b9 49bd 2f29 833a 1507 ac3d
00000190: 1bcd 1abd a175 583d 85ef f03c 1d64 f9bc
000001a0: 7aed 1c3d 0d7e a53d 02fa ac3d 2673 713d
000001b0: 6ae3 593c 2dff b3bd dfd4 053d 81be 0a3d
000001c0: 15f9 013d 3df3 41bd 118b d03c f9b8 3f3d
000001d0: 83fd b33d 59f9 843d d927 c5bd 9c94 7d3d
000001e0: 9ab8 2d3d 7499 dcbd 6bbb debd b88e c8bd
000001f0: cc4e 9c3d a2b6 83bd 8657 88bd 2182 61bd
00000200: d10a 9e3d 1ece 453d 45ff 773d 88d8 893c
00000210: 8411 743d 1b9b aa3c 7986 a53d 2d2d acbd
00000220: 1a42 6fbd 7431 c1bd 310e 3cbd f343 6b3d
00000230: e0c3 853d b6db d7bc 0266 573d 28f7 423d
00000240: 466b cdbc fa50 313d 3fa2 65bc 76aa 8e3d
00000250: ca6b 823d 2765 293d bd80 a6bc 5377 3e3d
00000260: 1966 8bbd 7f22 b0bd da7e 8e3d f7c4 36bd
00000270: 85ad f13c e13d 9eba 1ed4 303c 6268 633c
00000280: db06 bc3d 12da b33d b053 013d 4981 de3c
00000290: 11c4 5b3c ca24 b13d 25e6 423b 9f8d 9c3d
000002a0: 7512 9b3d 3676 70bc 8de2 d13d 2c01 15bc
000002b0: 41f3 9e3d 0bc7 c4bb a6e9 aa3d 8302 9e3c
000002c0: c728 66bd b368 c03d 1aa9 223d 3d52 70bd
000002d0: cd90 333d fe47 383d 8cd2 99bd 5c41 adbd
000002e0: 1d31 f63d 3239 193d 72d2 203c f602 fcbd
000002f0: 915d a9bd ac7f 4a3a 8aa4 aebd 156d 8cbd
00000300: 6ccc f63c cebb b5bd 9a9e 493d 90aa 39bd
00000310: 5d45 9a3d 2272 f2bd 0ff9 a83d 7d38 a3bd
00000320: b3c4 8d3d 221c 4a3d 8857 a23c b9fb 613c
00000330: 6d16 b7bd e749 22bd 8853 ccbd 5d4e e83c
00000340: 53e8 9ebd 0ac6 dd3c 719e 873c 4337 ed3b
00000350: c3fa 153d 4922 2ebc 38d4 a13d 4ecf b9bd
00000360: f6c0 0b3d 56c3 82bd 7df6 763d ed49 4ebd
00000370: d14c 4f3d 7c30 f5bc ac67 d5bd 2724 07bd
00000380: 9cca 9abc 78eb 4cbc 95e5 1fbc e031 6bbd
00000390: 6747 f93d 5f7e cabd 6a1c 173c 7f6e b03c
000003a0: 0d7e b3bd 570a 52bd 108f 8d3d cd65 233d
000003b0: d847 9ebd 2e5c 2c3c ac65 ac3d a42f b03d
000003c0: 3ebe 103e 5048 f0bd c758 c7bc a143 1f3c
000003d0: c1a0 ccbc f275 c8bd 0a51 95bd 10db 2fbd
000003e0: c1be 37bd c71d 943d 1bc1 aabd 0454 3b3e
000003f0: 9d1f bcbd ff6d babd fd73 933d fbac 58bd

fc2.bias f4 [84]
-0.10803803 -0.014283967 0.101602085 -0.08707505 0.004625624 -0.08945401 0.3377695 -0.04135551
-0.073594965 -0.05643554 -0.027834045 -0.016222263 0.075073235 0.25363773 0.07939989 -0.011728156
0.22937855 -0.064065136 0.011569234 0.07967738 0.016809722 -0.038579054 0.028483499 0.19106951
-0.042280946 -0.040743023 0.0009822503 0.07405243 0.28302857 0.109995015 -0.10134031 -0.08230496
0.15494454 0.32164484 0.05738808 -0.11833582 -0.03874864 0.11433037 0.004310797 0.06322665
0.1129373 0.0056959414 -0.019231241 -0.0900705 -0.026097372 0.15800898 -0.09412786 -0.009593528
0.2536864 0.13041554 -0.13041745 -0.0066776606 -0.06755105 0.06600154 -0.18282978 0.18511072
-0.12953438 -0.07769968 -0.042332403 0.059440944 -0.0921559 0.2502387 0.08747649 -0.103338175
0.0119988 -0.06182411 -0.043417342 0.12335863 0.07004574 0.06779803 0.15185234 0.011503534
-0.03606461 0.10285188 -0.20069654 0.016896926 0.116583146 -0.02370734 0.14504011 0.02078866
0.3251561 0.07355039 0.25098485 0.29878554
00000000: 0b43 ddbd 4d07 6abc c114 d03d 6754 b2bd
00000010: 8c92 973b aa33 b7bd 20f0 ac3e 6564 29bd
00000020: f5b8 96bd f428 67bd 3904 e4bc 8de4 84bc
00000030: ffbf 993d cedc 813e 699c a23d 7427 40bc
00000040: 36e2 6a3e 9534 83bd e28c 3d3c e52d a33d
00000050: 8bb4 893c 1205 1ebd 3a56 e93c baa7 433e
00000060: c92e 2dbd 28e2 26bd dabe 803a cda8 973d
00000070: 1fe9 903e 1145 e13d 828b cfbd 818f a8bd
00000080: c8a9 1e3e a2ae a43e c30f 6b3d 0d5a f2bd
00000090: e5b6 1ebd 0b26 ea3d 9641 8d3b f97c 813d
000000a0: ac4b e73d 05a5 ba3b d68a 9dbc e276 b8bd
000000b0: 28ca d5bc 1bcd 213e 1cc6 c0bd 2c2e 1dbc
000000c0: 2fe3 813e a78b 053e 278c 05be 47d0 dabb
000000d0: 3458 8abd d12b 873d bb37 3bbe aa8d 3d3e
000000e0: a9a4 04be 0321 9fbd be64 2dbd 5978 733d
000000f0: 3cbc bcbd 491f 803e e026 b33d f7a2 d3bd
00000100: 9d96 443c 473b 7dbd 62d6 31bd 73a3 fc3d
00000110: 2474 8f3d b2d9 8a3d 2e7f 1b3e 5279 3c3c
00000120: 7cb8 13bd 02a4 d23d 6583 4dbe 6c6b 8a3c
00000130: 25c3 ee3d e535 c2bc 6585 143e fb4c aa3c
00000140: dc7a a63e 96a1 963d 1681 803e 6bfa 983e

fc3.weight f4 [10, 84]
-0.028885923 -0.07792408 -0.05575783 -0.057702705 0.15157592 0.04821411 -0.35748175 0.1990301
0.08897559 0.092092566 0.11605928 -0.082703255 0.26609898 -0.046374656 0.15979345 0.13258588
-0.05945291 -0.06449821 -0.16412486 0.12522736 -0.0060710795 -0.054596994 -0.101880684 -0.041150503
0.1395119 0.19533524 -0.025308473 0.11619891 0.07874647 0.02475935 0.072440155 0.15213974
0.023002112 -0.44464573 -0.09673631 0.015855359 0.11218748 0.049554948 0.06954076 -0.021691367
0.2136388 0.05690587 0.012916435 -0.012650874 -0.03312227 0.008484755 0.10885217 -0.027756175
0.20156513 0.06280793 -0.07801083 -0.08550391 -0.036362935 -0.15619472 -0.17992347 0.24959785
0.04375081 -0.052834004 0.047760285 -0.18440506 0.0726243 0.38266394 0.10990973 0.033517703
-0.061794586 -0.016370228 -0.0892989 -0.06393487 0.09305554 0.0052809627 -0.01566805 0.07704487
0.13866812 0.03409978 0.16558823 0.22365828 -0.17598319 -0.07566253 -0.03371014 -0.061617125
0.09683521 -0.20518383 0.08850508 0.06524216 0.06877391 0.083704546 0.29598257 0.25208497
-0.20779271 -0.0082940115 -0.10918382 -0.120492175 0.074178815 0.070440985 0.32219952 0.06999413
-0.06332031 -0.200285 0.0707936 0.16721602 -0.20814209 -0.09722269 -0.020279685 0.0045875055
-0.019056182 -0.08794676 -0.11755138 -0.11711102 -0.020756295 -0.10510954 -0.07348911 -0.11123875
-0.14805952 0.12077853 0.1456526 -0.005181653 -0.042216375 -0.13380454 0.055154406 -0.08776762
-0.09371028 -0.30511218 0.053991128 -0.027065974 0.117642574 -0.07844682 -0.009907251 0.20259194
-0.1273178 0.058128834 -0.046882536 -0.012107338 -0.11687532 -0.15414691 0.218037 0.1537616
0.04502884 0.016794238 0.18345428 -0.09787764 0.044886515 -0.038617756 0.326732 -0.073291734
-0.041748352 0.10270556 0.16162015 0.032970652 0.1222538 -0.09961663 -0.069727935 0.058115244
0.11430186 0.01660405 -0.114306994 0.17984152 0.3349911 0.02777826 0.05854692 0.0038324064
-0.05418889 -0.059921574 -0.07244869 -0.06668023 -0.13040216 -0.23680373 -0.032571644 -0.25444537
0.08870377 0.084279485 -0.11315725 -0.007876883 -0.07478742 -0.015071088 -0.1581515 -0.04140692
0.09118514 0.08765954 -0.07997006 0.07252423 -0.053037338 0.08752923 0.0844041 0.15052427
0.16654766 -0.18312703 -0.082715616 -0.101582475 -0.017801581 0.02178588 -0.04644321 0.078165516
-0.020352302 0.13187899 0.12198422 0.18171285 0.20586121 -0.16892934 -0.22236648 0.013908466
-0.060247157 0.17857294 0.19648764 0.072002485 -0.031507008 0.31863847 -0.09203415 -0.084046856
-0.15666994 0.114882834 0.09896378 -0.0048282472 -0.097620785 -0.17030478 0.0098658 0.035278406
0.2084178 0.070045 0.019433469 -0.039119266 0.07609772 -0.05470715 0.023275753 0.23430938
-0.12572959 0.08025682 -0.12762347 -0.020238554 0.06517249 0.023256887 -0.15996563 -0.05951211
0.08532154 0.029301753 0.049302187 0.13712579 0.07792015 0.0588651 0.17897381 -0.051613793
-0.05715478 0.16580223 -0.11706196 -0.043191154 0.060847778 -0.047415476 0.0912972 0.14980827
-0.1921341 -0.032584403 0.053872433 0.29540786 0.07127384 0.15464477 -0.06406788 -0.052452978
00000000: 2ca2 ecbc a996 9fbd 5362 64bd ac59 6cbd
00000010: b836 1b3e 297c 453d d907 b7be 8cce 4b3e
00000020: d638 b63d 079b bc3d 7db0 ed3d 5360 a9bd
00000030: 203e 883e 5af3 3dbd e5a0 233e 98c4 073e
00000040: e584 73bd a317 84bd 5910 28be 9a3b 003e
00000050: e8ef c6bb 19a1 5fbd d2a6 d0bd 6e8d 28bd
00000060: 35dc 0e3e f605 483e b753 cfbc b2f9 ed3d
00000070: d445 a13d 1fd4 ca3c 815b 943d 85ca 1b3e
00000080: ed6e bc3c 9ba8 e3be b01d c6bd 19e3 813c
00000090: 8dc2 e53d 21fa 4a3d 636b 8e3d 18b2 b1bc
000000a0: 21c4 5a3e 2116 693d 749f 533c 9d45 4fbc
000000b0: 38ab 07bd a403 0b3c e3ed de3d eb60 e3bc
000000c0: 1767 4e3e 72a1 803d 24c4 9fbd ad1c afbd
000000d0: 4df1 14bd 82f1 1fbe dc3d 38be 9496 7f3e
000000e0: 0d34 333d 7868 58bd 4aa0 433d aed4 3cbe
000000f0: 0dbc 943d 87ec c33e 5a18 e13d dc49 093d
00000100: 521c 7dbd db1a 86bc 57e2 b6bd 49f0 82bd
00000110: e793 be3d ed0b ad3b 485a 80bc b3c9 9d3d
00000120: 04ff 0d3e 36ac 0b3d f68f 293e ad06 653e
00000130: f034 34be f5f4 9abd a513 0abd 3d62 7cbd
00000140: 8a51 c63d b61b 52be 2742 b53d ae9d 853d
00000150: 56d9 8c3d 4a6d ab3d 078b 973e 4811 813e
00000160: 9dc7 54be 9be3 07bc c49b dfbd 9ac4 f6bd
00000170: 10eb 973d 5d43 903d 56f7 a43e 1559 8f3d
00000180: 14ae 81bd 8317 4dbe 3cfc 903d ad3a 2b3e
00000190: 3323 55be b11c c7bd 9521 a6bc c952 963b
000001a0: b61b 9cbc 6e1d b4bd c7be f0bd e7d7 efbd
000001b0: 1b09 aabc ac43 d7bd 7581 96bd 24d1 e3bd
000001c0: ea9c 17be bc5a f73d f525 153e dbca a9bb
000001d0: 14eb 2cbd 0f04 09be 96e9 613d 83bf b3bd
000001e0: 2deb bfbd aa37 9cbe cd25 5d3d 76b9 ddbc
000001f0: 97ee f03d baa8 a0bd 0652 22bc 4374 4f3e
00000200: 995f 02be 8018 6e3d e707 40bd db5d 46bc
00000210: 545c efbd b0d8 1dbe 1745 5f3e ae73 1d3e
00000220: 2970 383d 1294 893c 70db 3b3e 1274 c8bd
00000230: ecda 373d a72d 1ebd 6b49 a73e fa19 96bd
00000240: 5200 2bbd 4b57 d23d c17f 253e 3c0c 073d
00000250: 3360 fa3d ce03 ccbd 85cd 8ebd 400a 6e3d
00000260: 1817 ea3d 3705 883c c919 eabd 6028 383e
00000270: f483 ab3e 3c8f e33c e5ce 6f3d 1c29 7b3b
00000280: 2bf5 5dbd 5370 75bd fb5f 94bd a58f 88bd
00000290: 2588 05be ad7c 72be d869 05bd aa46 82be
000002a0: 52aa b53d b99a ac3d fdbe e7bd 0b0e 01bc
000002b0: 262a 99bd baec 76bc 78f2 21be 4d9a 29bd
000002c0: 46bf ba3d d886 b33d 58c7 a3bd 9587 943d
000002d0: ae3d 59bd 8642 b33d 0fdc ac3d 0923 1a3e
000002e0: 788b 2a3e a785 3bbe ce66 a9bd 790a d0bd
000002f0: 9fd4 91bc 4d78 b23c 3c3b 3ebd 3e15 a03d
00000300: dfb9 a6bc 490b 073e ddd2 f93d ef12 3a3e
00000310: 48cd 523e d0fb 2cbe 0ab4 63be 56e0 633c
00000320: b9c5 76bd d3db 363e 0e34 493e 0a76 933d
00000330: 7e0d 01bd 9524 a33e 677c bcbd c220 acbd
00000340: 166e 20be b147 eb3d 86ad ca3d 4636 9ebb
00000350: 68ed c7bd 6064 2ebe 2aa4 213c 1780 103d
00000360: 7a6b 553e c173 8f3d f032 9f3c 863b 20bd
00000370: 1fd9 9b3d 9b14 60bd cbac be3c ccee 6f3e
00000380: 42bf 00be b05d a43d baaf 02be 53cb a5bc
00000390: 2879 853d 3a85 be3c 08ce 23be f8c2 73bd
000003a0: 0fbd ae3d 3b0a f03c 17f1 493d b46a 0c3e
000003b0: 9994 9f3d 881c 713d e944 373e fc68 53bd
000003c0: 211b 6abd 0fc8 293e 2ebe efbd 35e9 30bd
000003d0: 853b 793d bb36 42bd 07fa ba3d 5767 193e
000003e0: cdbe 44be 3977 05bd 57a9 5c3d b33f 973e
000003f0: 05f8 913d 335b 1e3e 0536 83bd efd8 56bd

fc3.bias f4 [10]
-0.16980284 -0.49528316 0.08938972 0.35635117 0.40494686 -0.103797 0.052487712 -0.28837952
0.51022357 -0.34864756
00000000: cce0 2dbe c195 fdbe f511 b73d a973 b63e
00000010: 3255 cf3e 8693 d4bd 5bfd 563d 7ba6 93be
00000020: 039e 023f ef81 b2be
